[I 250417 18:21:55 train_MambaHSI:127] ./RUNS/MambaHSI/HanChuan
[I 250417 18:22:02 train_MambaHSI:180] {'net_name': 'MambaHSI', 'dataset_index': 1, 'num_list': [30, 10], 'lr': 0.0003, 'seed_list': [0, 1, 2, 3, 4, 5, 6, 7, 8, 9]}
[I 250417 18:22:02 train_MambaHSI:181] MambaHSI(
      (patch_embedding): Sequential(
        (0): Conv2d(274, 128, kernel_size=(1, 1), stride=(1, 1))
        (1): GroupNorm(2, 128, eps=1e-05, affine=True)
        (2): SiLU()
      )
      (mamba): Sequential(
        (0): BothMamba(
          (softmax): Softmax(dim=0)
          (spa_mamba): SpaMamba(
            (mamba): Mamba(
              (in_proj): Linear(in_features=128, out_features=512, bias=False)
              (conv1d): Conv1d(256, 256, kernel_size=(4,), stride=(1,), padding=(3,), groups=256)
              (act): SiLU()
              (x_proj): Linear(in_features=256, out_features=40, bias=False)
              (dt_proj): Linear(in_features=8, out_features=256, bias=True)
              (out_proj): Linear(in_features=256, out_features=128, bias=False)
            )
            (proj): Sequential(
              (0): GroupNorm(2, 128, eps=1e-05, affine=True)
              (1): SiLU()
            )
          )
          (spe_mamba): PyramidMamba1_1(
            (local_mamba): Mamba(
              (in_proj): Linear(in_features=4, out_features=16, bias=False)
              (conv1d): Conv1d(8, 8, kernel_size=(4,), stride=(1,), padding=(3,), groups=8)
              (act): SiLU()
              (x_proj): Linear(in_features=8, out_features=33, bias=False)
              (dt_proj): Linear(in_features=1, out_features=8, bias=True)
              (out_proj): Linear(in_features=8, out_features=4, bias=False)
            )
            (global_mamba): Mamba(
              (in_proj): Linear(in_features=32, out_features=128, bias=False)
              (conv1d): Conv1d(64, 64, kernel_size=(4,), stride=(1,), padding=(3,), groups=64)
              (act): SiLU()
              (x_proj): Linear(in_features=64, out_features=34, bias=False)
              (dt_proj): Linear(in_features=2, out_features=64, bias=True)
              (out_proj): Linear(in_features=64, out_features=32, bias=False)
            )
            (proj): Sequential(
              (0): GroupNorm(4, 128, eps=1e-05, affine=True)
              (1): SiLU()
            )
          )
        )
        (1): HCA1(
          (global_avg_pool): AdaptiveAvgPool2d(output_size=1)
          (conv1): Conv2d(128, 8, kernel_size=(3, 3), stride=(1, 1), padding=(1, 1), bias=False)
          (relu): ReLU(inplace=True)
          (conv2): Conv2d(8, 128, kernel_size=(1, 1), stride=(1, 1), bias=False)
          (sigmoid): Sigmoid()
        )
        (2): AvgPool2d(kernel_size=2, stride=2, padding=0)
        (3): BothMamba(
          (softmax): Softmax(dim=0)
          (spa_mamba): SpaMamba(
            (mamba): Mamba(
              (in_proj): Linear(in_features=128, out_features=512, bias=False)
              (conv1d): Conv1d(256, 256, kernel_size=(4,), stride=(1,), padding=(3,), groups=256)
              (act): SiLU()
              (x_proj): Linear(in_features=256, out_features=40, bias=False)
              (dt_proj): Linear(in_features=8, out_features=256, bias=True)
              (out_proj): Linear(in_features=256, out_features=128, bias=False)
            )
            (proj): Sequential(
              (0): GroupNorm(2, 128, eps=1e-05, affine=True)
              (1): SiLU()
            )
          )
          (spe_mamba): PyramidMamba1_1(
            (local_mamba): Mamba(
              (in_proj): Linear(in_features=4, out_features=16, bias=False)
              (conv1d): Conv1d(8, 8, kernel_size=(4,), stride=(1,), padding=(3,), groups=8)
              (act): SiLU()
              (x_proj): Linear(in_features=8, out_features=33, bias=False)
              (dt_proj): Linear(in_features=1, out_features=8, bias=True)
              (out_proj): Linear(in_features=8, out_features=4, bias=False)
            )
            (global_mamba): Mamba(
              (in_proj): Linear(in_features=32, out_features=128, bias=False)
              (conv1d): Conv1d(64, 64, kernel_size=(4,), stride=(1,), padding=(3,), groups=64)
              (act): SiLU()
              (x_proj): Linear(in_features=64, out_features=34, bias=False)
              (dt_proj): Linear(in_features=2, out_features=64, bias=True)
              (out_proj): Linear(in_features=64, out_features=32, bias=False)
            )
            (proj): Sequential(
              (0): GroupNorm(4, 128, eps=1e-05, affine=True)
              (1): SiLU()
            )
          )
        )
        (4): HCA1(
          (global_avg_pool): AdaptiveAvgPool2d(output_size=1)
          (conv1): Conv2d(128, 8, kernel_size=(3, 3), stride=(1, 1), padding=(1, 1), bias=False)
          (relu): ReLU(inplace=True)
          (conv2): Conv2d(8, 128, kernel_size=(1, 1), stride=(1, 1), bias=False)
          (sigmoid): Sigmoid()
        )
        (5): AvgPool2d(kernel_size=2, stride=2, padding=0)
        (6): BothMamba(
          (softmax): Softmax(dim=0)
          (spa_mamba): SpaMamba(
            (mamba): Mamba(
              (in_proj): Linear(in_features=128, out_features=512, bias=False)
              (conv1d): Conv1d(256, 256, kernel_size=(4,), stride=(1,), padding=(3,), groups=256)
              (act): SiLU()
              (x_proj): Linear(in_features=256, out_features=40, bias=False)
              (dt_proj): Linear(in_features=8, out_features=256, bias=True)
              (out_proj): Linear(in_features=256, out_features=128, bias=False)
            )
            (proj): Sequential(
              (0): GroupNorm(2, 128, eps=1e-05, affine=True)
              (1): SiLU()
            )
          )
          (spe_mamba): PyramidMamba1_1(
            (local_mamba): Mamba(
              (in_proj): Linear(in_features=4, out_features=16, bias=False)
              (conv1d): Conv1d(8, 8, kernel_size=(4,), stride=(1,), padding=(3,), groups=8)
              (act): SiLU()
              (x_proj): Linear(in_features=8, out_features=33, bias=False)
              (dt_proj): Linear(in_features=1, out_features=8, bias=True)
              (out_proj): Linear(in_features=8, out_features=4, bias=False)
            )
            (global_mamba): Mamba(
              (in_proj): Linear(in_features=32, out_features=128, bias=False)
              (conv1d): Conv1d(64, 64, kernel_size=(4,), stride=(1,), padding=(3,), groups=64)
              (act): SiLU()
              (x_proj): Linear(in_features=64, out_features=34, bias=False)
              (dt_proj): Linear(in_features=2, out_features=64, bias=True)
              (out_proj): Linear(in_features=64, out_features=32, bias=False)
            )
            (proj): Sequential(
              (0): GroupNorm(4, 128, eps=1e-05, affine=True)
              (1): SiLU()
            )
          )
        )
      )
      (cls_head): Sequential(
        (0): Conv2d(128, 128, kernel_size=(1, 1), stride=(1, 1))
        (1): GroupNorm(2, 128, eps=1e-05, affine=True)
        (2): SiLU()
        (3): Conv2d(128, 16, kernel_size=(1, 1), stride=(1, 1))
      )
      (frfn): FRFN(
        (linear1): Sequential(
          (0): Linear(in_features=128, out_features=256, bias=True)
          (1): GELU(approximate='none')
        )
        (dwconv): Sequential(
          (0): Conv2d(128, 128, kernel_size=(3, 3), stride=(1, 1), padding=(1, 1), groups=128)
          (1): GELU(approximate='none')
        )
        (linear2): Sequential(
          (0): Linear(in_features=128, out_features=128, bias=True)
        )
        (partial_conv3): Conv2d(32, 32, kernel_size=(3, 3), stride=(1, 1), padding=(1, 1), bias=False)
        (global_avg_pool): AdaptiveAvgPool2d(output_size=1)
        (spectral_conv): Sequential(
          (0): Conv1d(128, 256, kernel_size=(3,), stride=(1,), padding=(1,))
          (1): GELU(approximate='none')
        )
        (dwconv2): Sequential(
          (0): Conv2d(256, 256, kernel_size=(3, 3), stride=(1, 1), padding=(1, 1), groups=256)
          (1): Conv2d(256, 256, kernel_size=(1, 1), stride=(1, 1))
          (2): GELU(approximate='none')
        )
        (linear3): Sequential(
          (0): Linear(in_features=512, out_features=128, bias=True)
        )
        (linear4): Sequential(
          (0): Linear(in_features=256, out_features=128, bias=True)
        )
      )
    )
[I 250417 18:22:06 train_MambaHSI:204] Adam (
    Parameter Group 0
        amsgrad: False
        betas: (0.9, 0.999)
        capturable: False
        differentiable: False
        eps: 1e-08
        foreach: None
        fused: False
        lr: 0.0003
        maximize: False
        weight_decay: 0
    )
[I 250417 18:22:20 train_MambaHSI:250] Iter:0|loss:5.997616767883301
…
